…
/2 [00:09<00:00,  4.61s/it]Loading checkpoint shards: 100%|██████████| 2/2 [00:09<00:00,  4.96s/it]
Loading checkpoint shards: 100%|██████████| 2/2 [00:09<00:00,  4.61s/it]Loading checkpoint shards: 100%|██████████| 2/2 [00:09<00:00,  4.96s/it]
Loading checkpoint shards: 100%|██████████| 2/2 [00:09<00:00,  4.61s/it]Loading checkpoint shards: 100%|██████████| 2/2 [00:09<00:00,  4.96s/it]
Loading checkpoint shards: 100%|██████████| 2/2 [00:10<00:00,  4.62s/it]Loading checkpoint shards: 100%|██████████| 2/2 [00:10<00:00,  5.03s/it]
LlamaForCausalLM(
  (model): LlamaModel(
    (embed_tokens): Embedding(32000, 4096)
    (layers): ModuleList(
      (0-31): 32 x LlamaDecoderLayer(
        (self_attn): LlamaSdpaAttention(
          (q_proj): Linear(in_features=4096, out_features=4096, bias=False)
          (k_proj): Linear(in_features=4096, out_features=4096, bias=False)
          (v_proj): Linear(in_features=4096, out_features=4096, bias=False)
          (o_proj): Linear(in_features=4096, out_features=4096, bias=False)
          (rotary_emb): LlamaRotaryEmbedding()
        )
        (mlp): LlamaMLP(
          (gate_proj): Linear(in_features=4096, out_features=11008, bias=False)
          (up_proj): Linear(in_features=4096, out_features=11008, bias=False)
          (down_proj): Linear(in_features=11008, out_features=4096, bias=False)
          (act_fn): SiLU()
        )
        (input_layernorm): LlamaRMSNorm()
        (post_attention_layernorm): LlamaRMSNorm()
      )
    )
    (norm): LlamaRMSNorm()
  )
  (lm_head): Linear(in_features=4096, out_features=32000, bias=False)
  (ref_model): LlamaForCausalLM(
    (model): LlamaModel(
      (embed_tokens): Embedding(32000, 4096)
      (layers): ModuleList(
        (0-31): 32 x LlamaDecoderLayer(
          (self_attn): LlamaSdpaAttention(
            (q_proj): Linear(in_features=4096, out_features=4096, bias=False)
            (k_proj): Linear(in_features=4096, out_features=4096, bias=False)
            (v_proj): Linear(in_features=4096, out_features=4096, bias=False)
            (o_proj): Linear(in_features=4096, out_features=4096, bias=False)
            (rotary_emb): LlamaRotaryEmbedding()
          )
          (mlp): LlamaMLP(
            (gate_proj): Linear(in_features=4096, out_features=11008, bias=False)
            (up_proj): Linear(in_features=4096, out_features=11008, bias=False)
            (down_proj): Linear(in_features=11008, out_features=4096, bias=False)
            (act_fn): SiLU()
          )
          (input_layernorm): LlamaRMSNorm()
          (post_attention_layernorm): LlamaRMSNorm()
        )
      )
      (norm): LlamaRMSNorm()
    )
    (lm_head): Linear(in_features=4096, out_features=32000, bias=False)
  )
)
Finished loading model from models/model/llama-2-7b-hf
====================================================
WARNING: the pad token of the tokenizer is None
set pad token to </s>
set pad token id to 2
====================================================
LlamaTokenizerFast(name_or_path='models/model/llama-2-7b-hf', vocab_size=32000, model_max_length=2048, is_fast=True, padding_side='right', truncation_side='left', special_tokens={'bos_token': '<s>', 'eos_token': '</s>', 'unk_token': '<unk>', 'pad_token': '</s>'}, clean_up_tokenization_spaces=False),  added_tokens_decoder={
…
